model/LSTM_Embedding/model.pkl (torch_old, 270169 bytes, 9 tensors)

weight f4 [3171, 20]
000000 cf d0 f8 bd 1a eb 53 3f 35 a8 1f 3f 60 3b b2 bf
       -0.12149202 0.8278061 0.6236604 -1.392437
000010 5b cb 17 3f 7c 3a 9b be 31 09 7c 3f df 7d 00 40
       0.5929467 -0.30318058 0.98451525 2.0076826
000020 1f c5 d7 bc 83 bf 37 bf 5c 6f c5 3f 80 ce 87 bd
       -0.026339112 -0.717766 1.5424609 -0.066311836
000030 2c 83 d7 be 92 1c 87 bf b1 8a 84 3e c5 99 61 bf
       -0.42092264 -1.0555594 0.25887063 -0.8812526
000040 08 6b 58 3f 07 9b 4d 3c 8b ca 67 3e 24 30 28 c0
       0.84538317 0.012549168 0.22635858 -2.6279383
000050 63 3e df bf c9 04 d8 be ae a6 45 bf 86 f3 83 3e
       -1.7440914 -0.4219115 -0.7720746 0.2577173
000060 0d 65 71 bf dc 40 e8 bf 00 87 8c bf 0a 21 96 be
       -0.94294816 -1.8144794 -1.0978699 -0.29322082
000070 c1 f8 50 3f ce 07 40 3f 4f 25 b0 3f e0 8f 58 bf
       0.8162957 0.7501191 1.3761386 -0.84594536
000080 14 68 a0 3f f3 0d e9 3f b0 7e 01 3f ac de 8b 3f
       1.2531762 1.8207382 0.50583935 1.0927329
000090 8b 19 d0 bf 0b 67 07 40 de bb a2 3f a7 1d 59 bf
       -1.6257795 2.1156642 1.2713583 -0.8481087
0000a0 74 dd 40 bf a6 27 df 3f 67 88 2d be 73 ff 11 3f
       -0.7533791 1.7433975 -0.16946565 0.5703041
0000b0 83 59 88 be 90 7e 7e bf f7 31 77 bf d6 61 7a 3f
       -0.26630792 -0.9941187 -0.96560615 0.97805536
0000c0 04 20 61 be 4f 80 fb 3f 65 cb 93 bf 06 f9 16 bd
       -0.21984869 1.9648532 -1.1546446 -0.03685858
0000d0 1e 81 83 3e 98 ce 9a bf 3d d3 57 3f 24 72 98 3f
       0.25684446 -1.2094297 0.843067 1.1909833
0000e0 b3 a5 a1 bf cf a7 5c 3f aa 07 68 3f 11 09 28 3d
       -1.2628692 0.86193556 0.90636694 0.04102427
0000f0 42 8b 1e 3f 1f 59 9c 3e c3 11 36 3f a5 9d 0c bf
       0.6193124 0.30536744 0.7112085 -0.54928046
000100 4a 09 7c bf 83 75 ea 3e 6f f3 fb be ef 69 ce bf
       -0.98451674 0.4579278 -0.49209163 -1.6126078
000110 70 e8 11 bf 9d 44 bf 3e 4e e2 d3 3e 0b ce fa bf
       -0.56995296 0.37357035 0.41383594 -1.9594129
000120 00 34 83 bf 14 98 a9 3e ea b3 e8 3e 32 f3 03 bf
       -1.0250244 0.3312384 0.45449764 -0.5154296
000130 a3 e8 0e 3e 6c 8a 8c bf 73 23 36 3f 72 1c 85 bf
       0.13955931 -1.0979743 0.7114784 -1.0399306
000140 56 a8 81 bf 3d e8 2a c0 8d 77 21 bf be 2e 9b 3e
       -1.0129497 -2.6704247 -0.63073045 0.303091
000150 43 e7 01 bc 92 6d 3a 3f 3e 45 4d 3f 4d a5 c9 be
       -0.007928672 0.7282344 0.8018378 -0.39383927
000160 cf 0e 8e 3e c3 47 43 bf b3 76 d6 bf b3 b1 f5 be
       0.27745673 -0.76281375 -1.6754974 -0.47987136
000170 a3 04 7e be bb 68 43 be 2e a2 fb 3c f1 f7 8a bf
       -0.24806456 -0.1908292 0.030716982 -1.0856916
000180 9d e4 e4 3f a1 5f a6 3e 1f bb ce bf 13 65 cf bf
       1.7882267 0.32494834 -1.6150855 -1.620272
000190 5a c5 22 3f 05 97 2d 3f ad be 7f be 74 30 4c bf
       0.63582385 0.6780856 -0.24975081 -0.79761434
0001a0 1b 2a 89 3e 83 80 8f 3f aa 5f 11 bf 94 b1 d4 be
       0.26789936 1.1211094 -0.56786597 -0.4154173
0001b0 9d 7c 99 3f 8a 77 a6 3e 25 87 95 3f 5e a3 0a be
       1.1991154 0.32513076 1.1681868 -0.13538882
0001c0 23 1b 1c 3f 95 4d 05 40 bd 13 04 bf ea 25 3b 3e
       0.6097891 2.0828602 -0.5159262 0.18276182
0001d0 6b a7 a6 3e ca 99 20 be 29 04 bb 3f e8 77 02 bd
       0.32549605 -0.15683666 1.4610645 -0.031852633
0001e0 7e 8a d2 3d 7f 1d 2a 3d 35 ca 40 bf 9e 7a b5 bf
       0.102803215 0.041532036 -0.75308543 -1.4178045
0001f0 fc a3 1d be 0f c2 5a 3e 0b bb 0e 3e ec 77 03 3f
       -0.15394586 0.2136309 0.13938539 0.5135486
000200 4f 4d 90 3f aa 8d 9a bf a1 7a 2c be bd 52 87 3f
       1.1273593 -1.2074482 -0.16843654 1.0572125
000210 0e 5d a6 3e 7d a7 cc bd 7a f6 12 c0 fb 90 98 bf
       0.3249287 -0.09992883 -2.2962937 -1.1919245
000220 1a 54 eb 3c 5b 3f 8d bf 63 f0 d9 bf 2f 36 b3 be
       0.028726626 -1.103496 -1.7026485 -0.35002276
000230 99 50 f8 be 0a a0 09 be c6 05 c9 be 8b 3b 25 3f
       -0.4849899 -0.13439956 -0.39262217 0.6454398
000240 79 6b d2 be db 0d 36 bf 42 a2 b3 be 84 24 d1 3e
       -0.4109762 -0.7111489 -0.3508473 0.40848172
000250 2f 2f ba 3e ec 6a ab bf 02 a6 94 bf 2f dc c1 3e
       0.36364123 -1.3392005 -1.1613162 0.378633
000260 b1 1e 96 bf a9 a4 87 be 4d 9d 08 40 12 6e 0d 3f
       -1.1728116 -0.26492813 2.1346009 0.5524608
000270 03 8f c5 3f 5e dc 48 3f 5d 13 0e 3f 77 16 49 3f
       1.5434269 0.78461254 0.55498296 0.78549904
000280 c7 92 41 be 05 bf ef be 9a 8e dc be 39 40 0b 3f
       -0.18903647 -0.46825424 -0.43077546 0.5439487
000290 4c 46 60 3d ee b7 84 3f de 45 2e 3f c6 d6 c6 3f
       0.05475454 1.0368631 0.6807536 1.5534294
0002a0 d5 95 68 3e 83 a6 a5 3f ff 54 dc be df 94 e8 bc
       0.22713406 1.294144 -0.43033597 -0.0283913
0002b0 50 6c 58 3f d5 5a bb 3f 4b 95 85 3f fe 3a 73 3f
       0.8454027 1.4637095 1.0436186 0.9501189
0002c0 08 ae 3d bf e9 ba 4b 3f 5f 23 92 3f 8e 08 66 3f
       -0.74093676 0.7958208 1.1417044 0.89856803
0002d0 e8 b4 dd 3d 80 24 3a 3f 4a ba c2 3e 0c b5 7f 3f
       0.10825521 0.72711945 0.38032752 0.9988563
0002e0 73 e2 68 3f 7a 1a 9f be f7 b3 07 3f 11 30 f0 3f
       0.90970534 -0.31074888 0.5300898 1.8764669
0002f0 c0 c6 e2 bf 05 1b 31 3e e8 4c dd 3e 75 b8 8b bf
       -1.7716904 0.17295463 0.43222737 -1.0915667
000300 5f c3 ba bf 1a 64 19 40 5e d3 3b bf b0 b4 84 3d
       -1.4590873 2.3967347 -0.73369396 0.06479776
000310 58 ee af 3f fd 66 29 bf 05 e8 8a 3f 59 23 57 bf
       1.3744612 -0.6617277 1.0852057 -0.8403831
000320 54 7b b2 be 7b 2d 20 bf 03 ea 3d c0 26 10 f1 bf
       -0.34859717 -0.625694 -2.967408 -1.8833053
000330 ea 32 d0 bf b0 54 cc 3e 31 0b 18 be 14 8b a9 bf
       -1.6265538 0.3990836 -0.14848019 -1.3245568
000340 d5 9c b0 3f dc a4 15 3e 47 76 45 3c 5f fd 1b bf
       1.3797861 0.1461367 0.012052125 -0.6093349
000350 96 03 a4 3f e6 a9 b8 3d 5a 5f 90 bf c6 99 e6 3e
       1.2813594 0.090167806 -1.1279099 0.45039195
000360 a3 c9 09 3f 23 c0 8e 3f 61 57 58 bd e9 2f ae 3e
       0.538233 1.1152385 -0.052817706 0.34020928
000370 36 2b 45 3f 32 55 59 bf 71 7c ad 3e f1 45 7b bf
       0.7701906 -0.8489562 0.33884004 -0.981536
000380 0b bd 11 40 c1 c1 c8 3e 53 ac d9 bf 44 64 c6 be
       2.2771633 0.39210322 -1.7005714 -0.38748372
000390 a6 a2 9d 3f e7 6b e3 3e e5 23 ab bf fe fa a6 3f
       1.2315261 0.4441826 -1.3370329 1.3045347
0003a0 c5 dd 14 be a5 a9 39 3a b2 f5 27 40 c5 03 81 bf
       -0.14537723 0.0007082469 2.624371 -1.0079275
0003b0 24 5d 90 be 31 7a 85 3f eb 90 2a 3f 0c 4f 6b bf
       -0.2819606 1.0427915 0.6662738 -0.9191749
0003c0 9d 8b 64 bf db 44 76 3f 01 da 34 3f 62 4e fe 3f
       -0.8927553 0.96198815 0.7064515 1.986767
0003d0 8d 90 c1 3e a6 c0 77 bf 4d b7 8b 3e 51 bc b8 bc
       0.37805596 -0.96778333 0.27288285 -0.022550734
0003e0 68 e8 cf 3f 1f 16 94 be ab 94 c3 3e 06 9d ec be
       1.62428 -0.28923127 0.38199362 -0.4621355
0003f0 ed 85 39 bf 99 02 f4 be fd b8 f7 3e 53 40 93 3d
       -0.7246998 -0.47658232 0.48383322 0.07190003

weight_ih_l0 f4 [80, 20]
000000 0c 26 35 3e 69 ff e8 3a ed f7 09 3e b0 c1 e5 3d
       0.17690295 0.0017776313 0.13473482 0.112185836
000010 78 1e c6 bd d3 3e f9 be d2 ad e3 be e3 7a 0a bf
       -0.0967378 -0.48680744 -0.44468552 -0.5409376
000020 d3 47 b3 bb 96 b7 b1 be 13 f1 e5 be 49 ec 16 3d
       -0.0054712086 -0.34710377 -0.44910488 0.036846433
000030 71 54 54 be 09 21 42 3e 4d 93 b3 bd 63 e7 1b bf
       -0.20735337 0.18957914 -0.0876833 -0.60899943
000040 18 66 88 3e bc ff 40 bf 29 fa e7 be f8 c3 8b 3f
       0.2664039 -0.7539022 -0.45308045 1.091918
000050 a1 77 3f be 25 d9 5f 3f f8 e3 c8 ba b8 41 5d 3e
       -0.18697979 0.8744071 -0.0015326729 0.21607101
000060 52 81 1d bf bc f0 c4 be 67 0b 20 be 2b 43 08 be
       -0.6152545 -0.38464916 -0.1562935 -0.13306873
000070 1e 38 4c bd 30 97 01 3e 63 b3 ff be 34 26 c2 3d
       -0.049858205 0.1265533 -0.4994155 0.09479943
000080 bc e1 b6 3e 8b 28 3c bd b8 dd 7f 3e 6c c2 c4 be
       0.35719097 -0.045937102 0.24986923 -0.38429582
000090 f2 04 75 be e9 b1 5b bd af 0b 94 be 39 79 da 3e
       -0.23927668 -0.053636465 -0.28915164 0.4267061
0000a0 10 0f 92 3e ac af c7 be 22 ed ab 3e f8 e1 de bd
       0.28527117 -0.39001215 0.33579355 -0.10882944
0000b0 86 94 9c be 4b 9b 27 be 2a da 89 3c 31 1d 4a 3e
       -0.30582064 -0.16367833 0.016827662 0.19737698
0000c0 92 ed 5b 3e d2 47 5f 3c f1 a8 bc 3e a4 28 42 3d
       0.21477345 0.013627963 0.36847642 0.04740204
0000d0 8b 3d 25 be d8 d6 be 3e 6c b7 6c bc d6 52 4e be
       -0.16136758 0.37273288 -0.014448028 -0.20148787
0000e0 0e 98 0f 3e 64 fd cb 3d a2 db 09 3e 28 73 f0 3c
       0.14022848 0.0996044 0.1346269 0.029351786
0000f0 19 fc 2d 3f db a8 3d 3f 9d 9f 3b be e9 c3 7b 3c
       0.67962795 0.7408578 -0.18322606 0.015366533
000100 ef 96 1a bf c5 a3 77 be b9 c9 ea 3d bb 42 82 bf
       -0.60386556 -0.24183567 0.11464257 -1.0176615
000110 ab e1 19 3f 1c ba bb be fd fd 5e bb ad 3c da be
       0.60109967 -0.36665428 -0.00340259 -0.42624417
000120 a9 d5 ec 3d 58 98 10 3f 46 ed 70 bf 83 04 67 bf
       0.1156419 0.5648246 -0.9411205 -0.9024126
000130 10 db 4e 3d 64 83 fc 3d b7 c2 69 be 8d 54 ed 3d
       0.050501883 0.12329748 -0.22828184 0.115883924
000140 eb 5f 63 3e 88 22 3c 3e 07 54 5e be 1d b9 27 3f
       0.22204559 0.18372548 -0.21711741 0.65516835
000150 2e c6 8b be bc f9 33 3f 66 b2 24 3f ff 8a 58 3e
       -0.27299637 0.7030294 0.64334714 0.21146773
000160 77 f2 84 be 65 ed 3e 3e a2 16 81 be ff b8 44 3e
       -0.25966236 0.18645246 -0.2521258 0.19211195
000170 50 6d 81 bd 54 a7 07 3f c1 3a f5 3e 53 84 36 be
       -0.06319678 0.529897 0.47896388 -0.17823915
000180 d0 c2 7f 3f 29 9f 17 3d 13 3a 94 be 38 a3 63 3f
       0.99906635 0.03701702 -0.28950557 0.8892093
000190 dc bb 71 3e 2d 75 21 3d c8 1c 21 3e ac 0f 8b be
       0.23606819 0.03941839 0.15733635 -0.27160394
0001a0 e8 38 6e 3e 6b a5 f4 bd ed 0b ef be ee da 54 be
       0.23263896 -0.119456135 -0.46688786 -0.2078664
0001b0 c1 50 d5 3e ca 09 98 be 80 23 6c bd 1c a8 d2 bd
       0.41663173 -0.29694968 -0.057651043 -0.102859706
0001c0 65 8e 42 3b d1 1f 2c bd 06 cf aa 3c 85 a8 b3 be
       0.0029686925 -0.04202253 0.02085067 -0.35089508
0001d0 43 0e f8 3e 80 df fa bd 83 23 86 3e 1a 84 85 3e
       0.4844838 -0.122496605 0.26198968 0.26077348
0001e0 57 89 9e 3d 58 77 ca 3d b0 db 09 bf 28 f7 c8 3c
       0.07741039 0.09886044 -0.5385084 0.024531916
0001f0 07 9c 1e 3d e4 77 9c 3e 55 cc b3 3d 89 c8 15 3e
       0.038723018 0.3056022 0.087792076 0.1462728
000200 f4 76 a9 3f 39 35 ff 3e 8d cd e4 be 94 2a 3f 3d
       1.3239427 0.49845293 -0.44688073 0.046671465
000210 23 48 88 be a9 7e 6b 3e d8 68 40 3e 68 2c d5 bd
       -0.26617536 0.22997536 0.18789995 -0.104088604
000220 91 a0 dd 3e 76 3f 3c 3f ba 10 eb 3e 1f 26 f0 be
       0.43286565 0.73534334 0.459112 -0.46904084
000230 39 9e 9b 3e 96 60 6e be 31 5b 54 bd 2b b2 51 3f
       0.30394152 -0.23279032 -0.05184478 0.8191249
000240 54 52 ed 3d 0a b6 7d bd 27 08 f4 be 64 d7 1c be
       0.115879685 -0.061941184 -0.4766247 -0.1531654
000250 cf 79 7d be 5c 5f cc be 93 e7 e7 3d f8 87 92 3d
       -0.24753498 -0.39916503 0.11323466 0.0715484
000260 16 b6 80 be 87 f6 95 3e d3 81 0d 3e fd 84 31 be
       -0.2513892 0.29289648 0.13819055 -0.17335887
000270 7c 07 8c bc a9 83 9c 3e d6 ca 72 3e 46 36 15 be
       -0.017093413 0.305692 0.23710188 -0.14571485
000280 b8 78 3a 3e 4b 16 b6 3e e1 2f 2c be d0 c0 2c 3e
       0.18210113 0.35563883 -0.1681514 0.16870427
000290 ac 53 66 bd 2e d2 c6 bc 55 a8 1f be 1e f6 14 bd
       -0.05623214 -0.024270143 -0.15591557 -0.03636753
0002a0 39 c8 04 be b3 a3 42 3e 5d ff e5 3e 91 0d 7f be
       -0.12967004 0.19007759 0.4492139 -0.24907519
0002b0 62 4d 73 3d d1 96 a8 3e c6 5a 34 3e e2 43 c4 3e
       0.05939997 0.32927564 0.17612752 0.3833304
0002c0 ef d5 59 be 6e b2 28 be 19 7e 0a 3e 5d 24 80 be
       -0.21273015 -0.16474316 0.13524665 -0.25027743
0002d0 93 6f 90 bd 71 1d 8a 3e f0 55 86 be 5b 42 68 3f
       -0.07052531 0.26975587 -0.2623744 0.9072625
0002e0 65 1a be 3d 63 7c 6b be f4 d5 a6 be 03 38 4e 3e
       0.09282378 -0.22996669 -0.32585108 0.20138554
0002f0 52 86 0f 3f e0 f4 e6 3d 98 fb 0a bf c5 40 94 be
       0.5606433 0.11277175 -0.5429015 -0.28955665
000300 f4 3a 08 3f 98 e2 59 be f2 23 2d be 96 c6 f7 3c
       0.53214955 -0.21277845 -0.16908243 0.03024606
000310 0e 80 11 3f b3 0e 52 3e 76 7c cc 3e aa 58 cd 3e
       0.5683602 0.2051342 0.39938706 0.40106708
000320 75 73 9c be 03 a1 dd 3e 4c 64 f2 bd 1b 69 7d 3e
       -0.30556837 0.43286905 -0.11835536 0.24747126
000330 0e 60 12 be dc ee b8 be c8 07 80 bf 59 d6 ff 3e
       -0.14294454 -0.36119735 -1.0002375 0.49968222
000340 57 f5 b1 3d 97 5f 9b 3d 59 db ad 3e 5e a4 4f be
       0.08689373 0.07586592 0.3395641 -0.20277545
000350 93 fc 10 bf bd 84 f7 3d f2 3f 0b 3f 85 80 49 3e
       -0.566354 0.12085865 0.5439445 0.19677933
000360 d7 40 66 3e c3 46 6d be e6 d7 c9 be 1b df 24 3e
       0.22485672 -0.23171525 -0.3942253 0.16100733
000370 4e 51 83 3e 86 ad 0b 3f ed b5 8d be 27 41 ab 3e
       0.25647968 0.5456165 -0.2767786 0.33448145
000380 d9 78 ef 3d 6a d6 0c bf 7b ae 45 3e 50 58 aa be
       0.11692972 -0.5501467 0.1930484 -0.33270502
000390 94 25 18 3e 36 1f 15 3e e6 26 cc be 54 ce 17 bf
       0.14858085 0.14562687 -0.39873427 -0.59299207
0003a0 76 31 48 be f1 b3 4e bf 64 eb 32 3e 78 df 0c 3f
       -0.19550118 -0.8074332 0.17472607 0.55028486
0003b0 f9 10 0c 3d f5 6a 27 be c5 53 3b 3e 7e d4 55 bc
       0.034195874 -0.16349395 0.18293674 -0.01305115
0003c0 5d c3 87 3d 3b fd ae be 6e 92 f7 3d 77 03 bc 3e
       0.066290595 -0.34177575 0.12088476 0.36721393
0003d0 41 76 76 bd ce 91 06 be 4d 5f 5c be 04 d7 22 3e
       -0.06017137 -0.13141558 -0.2152073 0.15902334
0003e0 e9 91 33 3e e2 11 ca bd 93 9b 4a be 59 65 d7 3e
       0.17536129 -0.09866692 -0.1978591 0.4206951
0003f0 1b 2f f5 3d b3 ae 38 3d c3 41 92 3e 99 6b 74 bd
       0.11971875 0.04508848 0.28565797 -0.059672926

weight_hh_l0 f4 [80, 20]
000000 16 4e 02 3e 4f 15 44 3e 4f 4b 8f be 93 2e 24 bd
       0.127251 0.19148754 -0.27987143 -0.04008348
000010 d3 7c 46 be 15 c7 dc 3c f6 ab c2 3e 0b a0 1a be
       -0.19383554 0.026950398 0.3802182 -0.15100114
000020 63 2f a2 3d 5b 0e f1 3d b0 cc 33 3d 64 ca 5d bd
       0.079191945 0.11770316 0.043896377 -0.054148093
000030 4f 62 4a be 19 ae 75 3d 18 97 57 3e b4 c5 4d 3d
       -0.19764064 0.059980486 0.21053731 0.050237373
000040 90 51 44 be c9 b0 f4 be b1 8f 2e bd ad bf 2d 3e
       -0.19171739 -0.47791126 -0.042617504 0.1696765
000050 71 31 d4 3d 49 b1 c1 be 63 a1 06 bd 0b d8 88 be
       0.10360993 -0.3783057 -0.032868754 -0.26727328
000060 4a e3 de bd 59 17 39 be 6e 9b 32 3e b2 cb 36 bd
       -0.10883196 -0.18075313 0.17442104 -0.044627853
000070 9d ce ce bd 5f f6 65 3e 99 23 18 be b4 41 cc 3e
       -0.10098002 0.22457264 -0.1485733 0.39893878
000080 69 1e 94 3d a6 b9 75 3e e2 45 ed bd e2 b6 f6 bd
       0.07232363 0.239966 -0.11585595 -0.12046601
000090 d5 78 a6 be c5 58 83 be 31 8c 22 3e 19 9d f3 3d
       -0.32514063 -0.25653663 0.15873791 0.118951984
0000a0 28 cf 7e be 96 31 06 3c b4 cd 6f 3c e3 31 83 3e
       -0.24883711 0.008190533 0.014636446 0.25623998
0000b0 60 eb 9e 3e b1 c8 19 be 01 a8 d4 3d c9 e5 73 3d
       0.31038952 -0.15017964 0.10383607 0.059545312
0000c0 60 06 9b be 1f c5 22 3d 2f 2b aa bd 22 41 82 be
       -0.302783 0.03973877 -0.08309018 -0.25440317
0000d0 31 e3 58 3e 89 0e eb 3d 9e dd 4b 3e 0a 90 7e be
       0.21180417 0.11477382 0.19908759 -0.24859634
0000e0 00 37 5e 3e 39 6b ee bd 91 33 b1 bd 66 65 b5 3c
       0.21700668 -0.11641545 -0.08652414 0.022143077
0000f0 2d f7 07 3c c2 c7 af 3e 46 67 25 3e 36 18 fa 3d
       0.008298677 0.3433209 0.16152677 0.12211649
000100 2c ab cd be 2a a9 0e bf 07 7c a5 3d 95 5a ed 3d
       -0.40169656 -0.55726874 0.08080297 0.11589543
000110 bc 73 91 be f4 f2 11 3e 8d 58 d2 3d b4 91 13 be
       -0.2840861 0.14252836 0.10270796 -0.1441105
000120 af b7 9c be 66 3b a2 3e 38 87 43 3b 74 38 cf be
       -0.3060889 0.31685942 0.0029835235 -0.40472758
000130 94 54 60 3e 16 ab b7 be ce a3 84 bd 0b dc ac bd
       0.21907264 -0.35872716 -0.06476556 -0.08440407
000140 4c 8e 78 be 6a 7e 24 3e 65 17 4d be 07 9c ac be
       -0.24273032 0.16063848 -0.20028456 -0.3371279
000150 03 53 f8 be 2d 96 cf 3d 3f ab 0e 3f 47 0f f5 be
       -0.48500833 0.10136066 0.5573005 -0.47863218
000160 ba fe 14 be 79 82 f6 bc 95 95 01 3e 93 c4 66 3e
       -0.14550295 -0.030091511 0.12654717 0.22535925
000170 5f 95 da 3d 34 de c9 bd 21 f5 b8 bd d4 b4 e8 bd
       0.106730215 -0.09856835 -0.0903113 -0.11362615
000180 c4 84 a2 3c 27 94 6d bd 36 e5 6f bd 57 a5 6c be
       0.019838698 -0.058002617 -0.058568202 -0.23109947
000190 d0 3d 02 be 91 80 04 3d 2f 71 f2 bd cc af 72 be
       -0.12718892 0.032349173 -0.11837994 -0.23699874
0001a0 b4 1c f9 bd 65 d5 8b 3d 1a d1 c1 3d fe 55 48 be
       -0.12163678 0.06827811 0.09463711 -0.19564053
0001b0 9d 8f 36 bd 04 90 72 3e 15 a4 70 be af 48 63 3d
       -0.044570554 0.2368775 -0.23500092 0.05548924
0001c0 dc f8 6f 3e 86 98 9d 3c 92 72 14 be 22 65 41 be
       0.23434776 0.019237768 -0.1449683 -0.18886235
0001d0 46 b4 8e 3e 38 b0 ac be d2 ad 9d bd ba 4e d0 bd
       0.27871913 -0.33728194 -0.07699169 -0.10171266
0001e0 96 9b 8e 3e 5e da 1d 3d a4 1c 0b be ec 44 a2 bc
       0.27853078 0.03853833 -0.13585144 -0.019808255
0001f0 8b ee cd 3e b2 18 c7 be 41 d9 42 3e 93 20 2d bd
       0.40221056 -0.3888603 0.19028188 -0.042267393
000200 e5 64 cc bd 47 9f 9e be d6 21 74 be 5a 6b d9 bd
       -0.099801816 -0.30980894 -0.23841032 -0.10616179
000210 df 0a 36 3e 62 94 e9 3c 7a 8a c2 3e 4d 47 31 3e
       0.17777584 0.028513137 0.37996274 0.17312355
000220 8b 19 fe be 4b 34 29 be 42 7f a3 bd e2 39 dd be
       -0.49628863 -0.16523854 -0.07983257 -0.43208224
000230 8b 1b e2 be ab 8e 0a be 18 f6 a5 bc 07 55 ad 3e
       -0.4416164 -0.13530986 -0.020258948 0.33853933
000240 58 e3 0b 3e be f2 94 be c9 fa 08 3d e7 9a a1 3e
       0.13660944 -0.29091448 0.033442292 0.31563494
000250 b5 5a eb 3c de b2 81 3e 01 65 0b 3d de 93 09 3e
       0.028729776 0.25331777 0.03403187 0.13435313
000260 00 16 08 be ab 21 f4 bd 39 98 88 3b 92 a4 ae bd
       -0.13289642 -0.11920484 0.004168537 -0.08527483
000270 ad bf 1e 3e 76 c8 84 3d 4c cb 26 bd 03 7f 0d be
       0.15502806 0.064835474 -0.040721223 -0.13817982
000280 6b d1 bd 3d a0 05 4b bd 09 e1 8a bd f2 65 cb bd
       0.09268459 -0.04956591 -0.06781203 -0.09931554
000290 7b 12 3f be 79 55 b4 3d 1b 72 e2 3d 7a 2f 5f 3d
       -0.18659393 0.08805365 0.1105692 0.054488637
0002a0 12 22 5d bd a1 31 57 be 70 57 5d be 0c a5 34 3e
       -0.05398757 -0.21015026 -0.21615386 0.17641085
0002b0 ac 26 71 3e ed 2a b3 bd 0d 45 28 3e 5f 62 1c 3d
       0.23549908 -0.08748422 0.16432591 0.03817975
0002c0 86 a9 14 be 93 c3 64 bd 26 d2 9d bd ec 91 c6 3d
       -0.14517793 -0.055850577 -0.07706098 0.09695801
0002d0 68 0b b8 3d 5c ac 85 3e f7 9e b5 3d 62 25 36 3d
       0.089865506 0.26108062 0.08868211 0.044469245
0002e0 ef 65 be bb 5f 44 62 be 9b 43 34 bc 67 24 f2 3c
       -0.0058104913 -0.22096394 -0.0110024465 0.029558374
0002f0 da 36 c1 bd 55 26 b4 3c 52 06 8b 3e 29 41 4f be
       -0.0943429 0.021990934 0.2715326 -0.202397
000300 31 91 8b 3d 28 aa aa 3e 89 b4 3e be be 39 d0 3c
       0.068148024 0.33332944 -0.18623556 0.025418159
000310 49 d3 0f be 12 61 93 be db 4d 17 be bf 62 d5 bd
       -0.14045443 -0.28784996 -0.14775793 -0.10419225
000320 fe 63 84 be fb c6 01 3e 6d a7 5b bd c2 50 6b 3e
       -0.25857538 0.12673561 -0.053626467 0.22980025
000330 f9 63 d3 3d d9 52 f1 bd 67 b4 eb bd aa 2a bb 3e
       0.10321803 -0.1178338 -0.115090184 0.36555988
000340 fb f5 ab 3d 78 6f 4d bb 99 aa 8c 3d 9b 52 5e 3c
       0.083965264 -0.0031346958 0.068684764 0.013569499
000350 7e f7 bd 3e c4 3d a6 3d 7c 95 82 bd 7c a8 03 be
       0.37102884 0.081172496 -0.06376168 -0.1285724
000360 cb b9 66 3d 1c c8 15 3e 6f 96 e1 3d 75 0c 06 be
       0.05632953 0.14627117 0.11015021 -0.1309069
000370 fa 18 02 bd 88 69 04 3e 85 e2 3a 3d 2e 58 19 3e
       -0.0317621 0.12930882 0.045626182 0.14975044
000380 72 e8 13 3e 86 1d 6c be 57 37 d3 bd ea a4 9f 3e
       0.1444414 -0.23058137 -0.103132896 0.31180507
000390 54 63 d0 3a 5c 1f d2 be f0 0d c2 be 98 98 0a 3d
       0.0015898743 -0.4103955 -0.37901258 0.03383693
0003a0 61 a8 f5 3d eb f7 98 3e da 5e a1 3e b6 f2 b6 be
       0.11995006 0.29876646 0.31517678 -0.3573205
0003b0 7b 20 cd 3d e9 33 aa bd 46 2e 00 bd 54 cf d7 bc
       0.10015961 -0.08310682 -0.03129413 -0.026343979
0003c0 80 d4 82 3c f1 46 92 bd a6 31 02 3e 04 da 88 be
       0.015970469 -0.07142437 0.12714252 -0.26728833
0003d0 a7 03 94 3e 4d 3c 85 be bb 5b 2f 3e c6 41 21 3e
       0.28909037 -0.26022568 0.17124836 0.15747747
0003e0 b5 5b 9a bd 68 ab 26 3e 0b e9 39 3d 3d 91 79 bd
       -0.07537023 0.16276324 0.045388263 -0.060929526
0003f0 2a a0 3e 3e 39 23 32 3e 40 5f 9e 3d 06 f9 5b be
       0.18615785 0.17396249 0.07733011 -0.21481714

bias_ih_l0 f4 [80]
000000 01 92 b0 3e de 8a d9 3e 66 cc b5 3e a8 8a 8a 3f
       0.34486392 0.4248876 0.35507506 1.0823565
000010 b6 d0 f0 3e 06 fc c5 3e d7 12 97 3e 73 b4 40 3e
       0.47034234 0.3866884 0.2950656 0.18818836
000020 32 a0 8c 3e 56 6d ff 3e 36 6a 23 3f 72 e2 96 3e
       0.2746597 0.49888104 0.6383394 0.2946964
000030 12 1e 94 3e ce b1 36 3f 2c 7d 26 3f 05 40 36 3f
       0.28929192 0.7136506 0.6503475 0.71191436
000040 6b 53 1c 3f 29 f4 e4 3e f7 1c 7c 3e 57 0d 32 3f
       0.61064786 0.4471753 0.24620424 0.69551605
000050 3d b4 b9 3e 30 cf 76 3e b6 8a 99 3e e7 d0 fc be
       0.36270323 0.24102473 0.2998864 -0.4937813
000060 72 d2 b2 3e b7 70 23 3f cb cb 8d 3e 4f ff bd ba
       0.34926182 0.63843864 0.27694544 -0.0014495644
000070 98 e6 4e 3e 8f 58 b0 bd 1e 4f cd bd 62 ac 82 be
       0.20205152 -0.08610641 -0.10024856 -0.25522143
000080 c5 f7 cd 3e 6f 34 1c 3e ce 6f 1e 3e e0 16 e5 3e
       0.40228096 0.15254377 0.15472338 0.44744015
000090 ec 4b 4d 3d e0 d3 00 3f 9e 95 4b 3d 82 f3 0c be
       0.050121233 0.50323296 0.049703233 -0.13764766
0000a0 21 7b 21 bf 5e f6 6b be 37 14 f4 3d 87 16 3e 3f
       -0.63078505 -0.230432 0.11917918 0.74253124
0000b0 b0 62 09 bf 10 a9 51 bf 28 a2 ad 3e 48 f2 26 bd
       -0.5366621 -0.81898594 0.33912778 -0.0407584
0000c0 c7 43 c9 bd f4 43 90 3e fd 10 6c be 7b bf 23 3e
       -0.098273806 0.28176844 -0.23053356 0.15991013
0000d0 44 67 95 3e 70 35 fc 3e 02 5a 08 3e b0 4f 08 bf
       0.29180348 0.4925952 0.13315585 -0.53246593
0000e0 54 ea 90 be 9c 88 4d be b6 34 a5 3e 0e 13 09 bf
       -0.28303778 -0.20071644 0.32266778 -0.535447
0000f0 2c a4 21 3f bb 02 4c 3f 44 22 ad 3e f0 68 96 3f
       0.6314113 0.79691666 0.33815205 1.1750774
000100 5a b0 19 3f e5 2a 0f 3f 86 28 72 3f da f3 e3 3e
       0.60034716 0.55924827 0.94593084 0.4452198
000110 cf 7b bf 3d d7 16 b3 3e 8f cb 3b 3e e1 70 45 3f
       0.093497865 0.34978363 0.1833937 0.77125365
000120 e8 df 90 3e 47 32 27 3f be 2e 47 3f 15 7a 27 3f
       0.28295827 0.6531109 0.778057 0.6542066
000130 b4 0e 54 3f 42 02 d5 3e 15 b7 19 3f 34 30 c5 3e
       0.82834935 0.41603285 0.60044986 0.3851334

bias_hh_l0 f4 [80]
000000 cd bf a0 3e aa 38 3a 3f e7 34 a4 3e d7 e7 82 3f
       0.31396332 0.7274271 0.3207161 1.0227002
000010 fe 3d 96 3e c0 c5 04 3f 1c f7 03 3f 53 20 96 3e
       0.2934417 0.5186424 0.51548934 0.29321536
000020 5c c7 de 3e 1f bd 3d 3f 66 8b 05 3f 51 84 85 3e
       0.43511474 0.741167 0.5216583 0.26077512
000030 30 8f f7 3e 7d 31 c3 3e af 53 2e 3f f9 17 54 3f
       0.4835143 0.38123694 0.6809644 0.8284908
000040 ef 2d 4a 3f 48 89 45 3e 3c 80 d7 3e 65 ce 14 3f
       0.7897634 0.1929065 0.42090023 0.58127433
000050 e2 61 a8 3e 46 c6 9b 3e 5f 66 ad 3e 6f 67 f7 be
       0.3288718 0.30424708 0.33867165 -0.483211
000060 a5 02 a2 3e e5 65 01 3f 98 bf 08 3e 75 2a 6f bc
       0.31642643 0.50546104 0.13354337 -0.014597525
000070 bc 91 99 bd 05 51 64 3e 06 eb 4f 3e f4 47 77 be
       -0.074985 0.22296531 0.20304498 -0.24148542
000080 70 07 86 3e 32 c0 fd 3d ab 0f f1 3e 5d 52 5a 3e
       0.2617755 0.12390174 0.47082266 0.21320482
000090 e1 5d 4e 3e 0e 6f 08 3f 4c 10 e5 bd 3b 9d 3f be
       0.20153 0.53294456 -0.11184749 -0.18712322
0000a0 24 23 e1 be 13 8e cb 3c 72 a5 3e be 8f f6 09 3f
       -0.43972123 0.02484802 -0.186178 0.53891844
0000b0 c8 3f 18 be 20 3f 46 bf b2 66 a8 3e 36 74 50 3e
       -0.1486808 -0.7744007 0.3289085 0.20356831
0000c0 42 6c 86 3d 69 1d 30 3e eb 69 c1 be 42 c6 42 3e
       0.06563617 0.17198719 -0.37776121 0.19020942
0000d0 52 8a af 3d a6 60 12 3f ed a9 5b bd 2e 3b 52 bf
       0.085713044 0.57178724 -0.05362885 -0.8212155
0000e0 dc c3 04 bd e5 c8 8c be c9 90 2a bd fe 40 b8 be
       -0.03241335 -0.2749702 -0.041641984 -0.35987085
0000f0 2b 20 f3 3e 8f 02 36 3f 66 56 ee 3e d0 ee 96 3f
       0.4748548 0.71097654 0.46550292 1.179163
000100 a8 3b 66 3f f7 03 2a 3f 76 ed 84 3f 70 c6 ad 3e
       0.8993478 0.664123 1.0384967 0.33940458
000110 62 59 90 3e 05 0f b0 3e 56 a7 cb 3e e1 2c 3a 3f
       0.28193194 0.3438646 0.39776105 0.7272473
000120 c9 08 8a 3e ad 9b 0d 3f 71 70 4a 3f fa 4c 77 3f
       0.26959828 0.5531567 0.7907782 0.9660183
000130 35 84 64 3f 2a 9d 08 3f 1b e5 04 3f 37 95 c8 3e
       0.8926423 0.53364813 0.5191209 0.39176342

weight f4 [3, 20]
000000 fb 2e 05 c0 04 57 a8 3f f5 a1 51 bf 53 d5 92 40
       -2.0809925 1.3151555 -0.8188775 4.5885406
000010 4f 5d 26 c0 91 a2 01 c0 f6 a0 39 40 c7 9f 78 3e
       -2.599445 -2.0255473 2.9004493 0.242797
000020 df 0e ad 3d 36 c1 29 40 20 58 45 c0 fb fa ea be
       0.08450102 2.6524177 -3.0835037 -0.45894608
000030 d5 6b 91 3f 3d 39 0a 3f b9 02 2b c0 e3 fd 5b c0
       1.1361033 0.5399359 -2.6720412 -3.437371
000040 e8 ea 9f 3f 65 c8 d7 be 5d ef ec 3f 25 82 56 c0
       1.2493563 -0.42145076 1.8510548 -3.3516934
000050 e9 44 53 bf 01 45 51 c0 40 fe c0 3f 02 86 25 c0
       -0.82527024 -3.2698367 1.5077591 -2.5863042
000060 14 47 24 3f 1f 83 ba 3f 20 ee 1e c0 59 67 9c be
       0.64170957 1.4571265 -2.483284 -0.30547598
000070 81 cc 17 be 51 be a0 3e 00 72 80 3f 33 9a 0a 40
       -0.14824106 0.313952 1.003479 2.1656616
000080 ad 9f cb 3e a2 29 fb 3f 4e f6 36 40 ff 03 06 40
       0.3977026 1.962208 2.8587832 2.093994
000090 28 bd 50 c0 83 a4 17 3f 13 e3 86 bf 77 95 ee 3f
       -3.2615452 0.592354 -1.0538048 1.8639363
0000a0 33 c1 36 40 34 6e f1 3f 9a f2 2b bf e6 f6 04 c0
       2.855542 1.8861756 -0.67167056 -2.0775695
0000b0 93 0f 09 40 80 90 4b 3f 71 d7 1f bf 8b 7e 87 3e
       2.1415756 0.79517365 -0.6243811 0.26463732
0000c0 38 4f 1c 3f 65 db 31 c0 4c 45 05 40 4d 64 07 c0
       0.6105838 -2.7790158 2.0823545 -2.1154969
0000d0 ab 14 b2 bf 19 a6 21 c0 7e 43 ff be 54 1d d1 3f
       -1.3912557 -2.5257628 -0.4985618 1.6337075
0000e0 9a b3 04 40 95 27 12 bf 44 e9 60 bf 79 22 b1 3f
       2.073462 -0.5709165 -0.87855935 1.3838645

bias f4 [3]
000000 40 28 01 3f 19 ca a8 bf 04 2d 2a 3f
       0.5045204 -1.3186675 0.6647494

hidden f4 [1, 1, 20]
000000 c2 37 21 3d 5a ff 5c 3f 1a fb 20 3f 83 82 c2 be
       0.039359815 0.86327136 0.6288315 -0.37990198
000010 7f 2b 65 bf 6a e9 76 bf e0 8b 88 bd 97 a1 19 bf
       -0.89519495 -0.9644991 -0.06667304 -0.6001219
000020 6e 24 c5 be 2b e8 31 bb 38 04 45 bf 15 7b 0d 3f
       -0.38504356 -0.002714644 -0.7695956 0.55265933
000030 18 6d ab 3d 0d 2c 1f 3e f4 33 20 3f d7 73 38 bf
       0.08370417 0.15544148 0.62579274 -0.7205176
000040 39 50 42 3f 84 a6 58 be 30 1d 02 bf 28 3f 47 bf
       0.7590366 -0.2115727 -0.50825787 -0.77830744

hidden f4 [1, 1, 20]
000000 c0 1e 24 3d 6e 04 c0 3f ba d7 e0 3f 46 1e cf be
       0.040068388 1.5001352 1.7565835 -0.40452784
000010 5c 3a dc bf d8 e3 4d c0 32 cb 89 bd 28 94 3b bf
       -1.720531 -3.2170315 -0.067282096 -0.73272943
000020 25 43 16 bf 40 7c 32 bb 6e da 8e bf c8 bb 6b 3f
       -0.58696204 -0.0027234703 -1.116041 0.92083406
000030 b8 54 b1 3d 53 68 2b 3e 6b 9b 15 40 f8 95 76 bf
       0.08658737 0.16739015 2.337611 -0.96322584
000040 01 ff 80 3f ca a8 12 bf 1c 19 28 bf 24 94 8e bf
       1.0077821 -0.572888 -0.65663314 -1.1138959
